pip install -i https://pypi.tuna.tsinghua.edu.cn/simple scikit-learn

---------------------------------------------------------------------------
TextCNN
---------------------------------------------------------------------------
/home/hello/anaconda3/envs/Pytorch/bin/python run.py --model TextCNN --word True
Loading data...
Vocab size: 10002
447487it [00:04, 92651.05it/s]
95906it [00:01, 87664.66it/s]
96002it [00:00, 114172.81it/s]
Time usage: 0:00:07
<bound method Module.parameters of Model(
  (embedding): Embedding(10002, 300)
  (convs): ModuleList(
    (0): Conv2d(1, 256, kernel_size=(2, 300), stride=(1, 1))
    (1): Conv2d(1, 256, kernel_size=(3, 300), stride=(1, 1))
    (2): Conv2d(1, 256, kernel_size=(4, 300), stride=(1, 1))
  )
  (dropout): Dropout(p=0.5, inplace=False)
  (fc): Linear(in_features=768, out_features=6, bias=True)
)>
Epoch [1/20]
Iter:      0,  Train Loss:   1.8,  Train Acc: 10.94%,  Val Loss:   2.4,  Val Acc: 27.08%,  Time: 0:00:04 *
Iter:    100,  Train Loss:  0.75,  Train Acc: 74.22%,  Val Loss:  0.64,  Val Acc: 77.63%,  Time: 0:00:05 *
Iter:    200,  Train Loss:  0.62,  Train Acc: 76.56%,  Val Loss:  0.58,  Val Acc: 79.62%,  Time: 0:00:07 *
Iter:    300,  Train Loss:  0.54,  Train Acc: 80.47%,  Val Loss:  0.55,  Val Acc: 81.04%,  Time: 0:00:08 *
…
 [  573  2100 10067   280   560   508]
 [  183   512   485 19445   336   125]
 [   39   232   685   195 11180    43]
 [  104   746   677   167    97  7956]]
Time usage: 0:00:02

进程已结束，退出代码为 0

---------------------------------------------------------------------------
FastText
---------------------------------------------------------------------------
/home/hello/anaconda3/envs/Pytorch/bin/python run.py --model FastText --word True
Loading data...
Vocab size: 10002
447487it [00:20, 22012.88it/s]
95906it [00:03, 27314.98it/s]
96002it [00:04, 21789.64it/s]
Time usage: 0:00:28
<bound method Module.parameters of Model(
  (embedding): Embedding(10002, 300, padding_idx=10001)
  (embedding_ngram2): Embedding(250499, 300)
  (embedding_ngram3): Embedding(250499, 300)
  (dropout): Dropout(p=0.5, inplace=False)
  (fc1): Linear(in_features=900, out_features=256, bias=True)
  (fc2): Linear(in_features=256, out_features=6, bias=True)
)>
Epoch [1/20]
Iter:      0,  Train Loss:   2.0,  Train Acc: 25.00%,  Val Loss:   1.9,  Val Acc: 15.00%,  Time: 0:00:03 *
Iter:    100,  Train Loss:   1.5,  Train Acc: 44.53%,  Val Loss:   1.4,  Val Acc: 52.94%,  Time: 0:00:08 *
Iter:    200,  Train Loss:   1.2,  Train Acc: 53.91%,  Val Loss:   1.1,  Val Acc: 57.47%,  Time: 0:00:13 *
Iter:    300,  Train Loss:   1.1,  Train Acc: 61.72%,  Val Loss:  0.93,  Val Acc: 69.29%,  Time: 0:00:23 *
…
 [  151   475   520 19487   343   110]
 [   29   290   685   243 11085    42]
 [   85   784   886   211    88  7693]]
Time usage: 0:00:02

进程已结束，退出代码为 0

---------------------------------------------------------------------------
Transformer
---------------------------------------------------------------------------
/home/hello/anaconda3/envs/Pytorch/bin/python run.py --model Transformer --word True
Loading data...
Vocab size: 10002
447487it [00:04, 89682.89it/s]
95906it [00:01, 85877.98it/s]
96002it [00:00, 110228.37it/s]
Time usage: 0:00:07
<bound method Module.parameters of Model(
  (embedding): Embedding(10002, 300)
  (postion_embedding): Positional_Encoding(
    (dropout): Dropout(p=0.5, inplace=False)
  )
  (encoder): Encoder(
    (attention): Multi_Head_Attention(
      (fc_Q): Linear(in_features=300, out_features=300, bias=True)
      (fc_K): Linear(in_features=300, out_features=300, bias=True)
      (fc_V): Linear(in_features=300, out_features=300, bias=True)
      (attention): Scaled_Dot_Product_Attention()
      (fc): Linear(in_features=300, out_features=300, bias=True)
      (dropout): Dropout(p=0.5, inplace=False)
      (layer_norm): LayerNorm((300,), eps=1e-05, elementwise_affine=True)
    )
    (feed_forward): Position_wise_Feed_Forward(
      (fc1): Linear(in_features=300, out_features=1024, bias=True)
      (fc2): Linear(in_features=1024, out_features=300, bias=True)
      (dropout): Dropout(p=0.5, inplace=False)
      (layer_norm): LayerNorm((300,), eps=1e-05, elementwise_affine=True)
    )
  )
  (encoders): ModuleList(
    (0-1): 2 x Encoder(
      (attention): Multi_Head_Attention(
        (fc_Q): Linear(in_features=300, out_features=300, bias=True)
        (fc_K): Linear(in_features=300, out_features=300, bias=True)
        (fc_V): Linear(in_features=300, out_features=300, bias=True)
        (attention): Scaled_Dot_Product_Attention()
        (fc): Linear(in_features=300, out_features=300, bias=True)
        (dropout): Dropout(p=0.5, inplace=False)
        (layer_norm): LayerNorm((300,), eps=1e-05, elementwise_affine=True)
      )
      (feed_forward): Position_wise_Feed_Forward(
        (fc1): Linear(in_features=300, out_features=1024, bias=True)
        (fc2): Linear(in_features=1024, out_features=300, bias=True)
        (dropout): Dropout(p=0.5, inplace=False)
        (layer_norm): LayerNorm((300,), eps=1e-05, elementwise_affine=True)
      )
    )
  )
  (fc1): Linear(in_features=9600, out_features=6, bias=True)
)>
Epoch [1/20]
Iter:      0,  Train Loss:   2.0,  Train Acc: 11.72%,  Val Loss:   4.7,  Val Acc: 27.08%,  Time: 0:00:03 *
Iter:    100,  Train Loss:   1.2,  Train Acc: 60.94%,  Val Loss:   1.2,  Val Acc: 62.86%,  Time: 0:00:06 *
Iter:    200,  Train Loss:  0.91,  Train Acc: 66.41%,  Val Loss:  0.92,  Val Acc: 71.93%,  Time: 0:00:09 *
Iter:    300,  Train Loss:  0.75,  Train Acc: 73.44%,  Val Loss:  0.81,  Val Acc: 76.14%,  Time: 0:00:12 *
…
